…
2020-06-24 13:41:28,326: INFO): Constant cols eliminated
2020-06-24 13:41:28,326: INFO): data shapes: [(17526, 512), (17526, 512), (17526, 181), (17526, 47), (17526, 505)]
2020-06-24 13:41:28,326: INFO): Normal standarization of Y
2020-06-24 13:41:28,326: INFO): Fold 0
2020-06-24 13:41:29,741: INFO): Model info:
__________________________________________________________________________________________________
Layer (type)                    Output Shape         Param #     Connected to                     
==================================================================================================
input_1 (InputLayer)            (None, 512)          0                                            
__________________________________________________________________________________________________
input_2 (InputLayer)            (None, 512)          0                                            
__________________________________________________________________________________________________
input_3 (InputLayer)            (None, 181)          0                                            
__________________________________________________________________________________________________
input_4 (InputLayer)            (None, 47)           0                                            
__________________________________________________________________________________________________
input_5 (InputLayer)            (None, 505)          0                                            
__________________________________________________________________________________________________
dense_1 (Dense)                 (None, 64)           32832       input_1[0][0]                    
__________________________________________________________________________________________________
dense_4 (Dense)                 (None, 64)           32832       input_2[0][0]                    
__________________________________________________________________________________________________
dense_7 (Dense)                 (None, 64)           11648       input_3[0][0]                    
__________________________________________________________________________________________________
dense_10 (Dense)                (None, 64)           3072        input_4[0][0]                    
__________________________________________________________________________________________________
dense_13 (Dense)                (None, 64)           32384       input_5[0][0]                    
__________________________________________________________________________________________________
dropout_1 (Dropout)             (None, 64)           0           dense_1[0][0]                    
__________________________________________________________________________________________________
dropout_4 (Dropout)             (None, 64)           0           dense_4[0][0]                    
__________________________________________________________________________________________________
dropout_7 (Dropout)             (None, 64)           0           dense_7[0][0]                    
__________________________________________________________________________________________________
dropout_10 (Dropout)            (None, 64)           0           dense_10[0][0]                   
__________________________________________________________________________________________________
dropout_13 (Dropout)            (None, 64)           0           dense_13[0][0]                   
__________________________________________________________________________________________________
batch_normalization_1 (BatchNor (None, 64)           256         dropout_1[0][0]                  
__________________________________________________________________________________________________
batch_normalization_4 (BatchNor (None, 64)           256         dropout_4[0][0]                  
__________________________________________________________________________________________________
batch_normalization_7 (BatchNor (None, 64)           256         dropout_7[0][0]                  
__________________________________________________________________________________________________
batch_normalization_10 (BatchNo (None, 64)           256         dropout_10[0][0]                 
__________________________________________________________________________________________________
batch_normalization_13 (BatchNo (None, 64)           256         dropout_13[0][0]                 
__________________________________________________________________________________________________
dense_2 (Dense)                 (None, 64)           4160        batch_normalization_1[0][0]      
__________________________________________________________________________________________________
dense_5 (Dense)                 (None, 64)           4160        batch_normalization_4[0][0]      
__________________________________________________________________________________________________
dense_8 (Dense)                 (None, 64)           4160        batch_normalization_7[0][0]      
__________________________________________________________________________________________________
dense_11 (Dense)                (None, 64)           4160        batch_normalization_10[0][0]     
__________________________________________________________________________________________________
dense_14 (Dense)                (None, 64)           4160        batch_normalization_13[0][0]     
__________________________________________________________________________________________________
dropout_2 (Dropout)             (None, 64)           0           dense_2[0][0]                    
__________________________________________________________________________________________________
dropout_5 (Dropout)             (None, 64)           0           dense_5[0][0]                    
__________________________________________________________________________________________________
dropout_8 (Dropout)             (None, 64)           0           dense_8[0][0]                    
__________________________________________________________________________________________________
dropout_11 (Dropout)            (None, 64)           0           dense_11[0][0]                   
__________________________________________________________________________________________________
dropout_14 (Dropout)            (None, 64)           0           dense_14[0][0]                   
__________________________________________________________________________________________________
batch_normalization_2 (BatchNor (None, 64)           256         dropout_2[0][0]                  
__________________________________________________________________________________________________
batch_normalization_5 (BatchNor (None, 64)           256         dropout_5[0][0]                  
__________________________________________________________________________________________________
batch_normalization_8 (BatchNor (None, 64)           256         dropout_8[0][0]                  
__________________________________________________________________________________________________
batch_normalization_11 (BatchNo (None, 64)           256         dropout_11[0][0]                 
__________________________________________________________________________________________________
batch_normalization_14 (BatchNo (None, 64)           256         dropout_14[0][0]                 
__________________________________________________________________________________________________
dense_3 (Dense)                 (None, 64)           4160        batch_normalization_2[0][0]      
__________________________________________________________________________________________________
dense_6 (Dense)                 (None, 64)           4160        batch_normalization_5[0][0]      
__________________________________________________________________________________________________
dense_9 (Dense)                 (None, 64)           4160        batch_normalization_8[0][0]      
__________________________________________________________________________________________________
dense_12 (Dense)                (None, 64)           4160        batch_normalization_11[0][0]     
__________________________________________________________________________________________________
dense_15 (Dense)                (None, 64)           4160        batch_normalization_14[0][0]     
__________________________________________________________________________________________________
dropout_3 (Dropout)             (None, 64)           0           dense_3[0][0]                    
__________________________________________________________________________________________________
dropout_6 (Dropout)             (None, 64)           0           dense_6[0][0]                    
__________________________________________________________________________________________________
dropout_9 (Dropout)             (None, 64)           0           dense_9[0][0]                    
__________________________________________________________________________________________________
dropout_12 (Dropout)            (None, 64)           0           dense_12[0][0]                   
__________________________________________________________________________________________________
dropout_15 (Dropout)            (None, 64)           0           dense_15[0][0]                   
__________________________________________________________________________________________________
batch_normalization_3 (BatchNor (None, 64)           256         dropout_3[0][0]                  
__________________________________________________________________________________________________
batch_normalization_6 (BatchNor (None, 64)           256         dropout_6[0][0]                  
__________________________________________________________________________________________________
batch_normalization_9 (BatchNor (None, 64)           256         dropout_9[0][0]                  
__________________________________________________________________________________________________
batch_normalization_12 (BatchNo (None, 64)           256         dropout_12[0][0]                 
__________________________________________________________________________________________________
batch_normalization_15 (BatchNo (None, 64)           256         dropout_15[0][0]                 
__________________________________________________________________________________________________
concatenate_1 (Concatenate)     (None, 128)          0           batch_normalization_3[0][0]      
                                                                 batch_normalization_6[0][0]      
__________________________________________________________________________________________________
concatenate_2 (Concatenate)     (None, 192)          0           batch_normalization_9[0][0]      
                                                                 batch_normalization_12[0][0]     
                                                                 batch_normalization_15[0][0]     
__________________________________________________________________________________________________
dense_16 (Dense)                (None, 10)           1290        concatenate_1[0][0]              
__________________________________________________________________________________________________
dense_19 (Dense)                (None, 10)           1930        concatenate_2[0][0]              
__________________________________________________________________________________________________
dropout_16 (Dropout)            (None, 10)           0           dense_16[0][0]                   
__________________________________________________________________________________________________
dropout_19 (Dropout)            (None, 10)           0           dense_19[0][0]                   
__________________________________________________________________________________________________
batch_normalization_16 (BatchNo (None, 10)           40          dropout_16[0][0]                 
__________________________________________________________________________________________________
batch_normalization_19 (BatchNo (None, 10)           40          dropout_19[0][0]                 
__________________________________________________________________________________________________
dense_17 (Dense)                (None, 10)           110         batch_normalization_16[0][0]     
__________________________________________________________________________________________________
dense_20 (Dense)                (None, 10)           110         batch_normalization_19[0][0]     
__________________________________________________________________________________________________
dropout_17 (Dropout)            (None, 10)           0           dense_17[0][0]                   
__________________________________________________________________________________________________
dropout_20 (Dropout)            (None, 10)           0           dense_20[0][0]                   
__________________________________________________________________________________________________
batch_normalization_17 (BatchNo (None, 10)           40          dropout_17[0][0]                 
__________________________________________________________________________________________________
batch_normalization_20 (BatchNo (None, 10)           40          dropout_20[0][0]                 
__________________________________________________________________________________________________
dense_18 (Dense)                (None, 10)           110         batch_normalization_17[0][0]     
__________________________________________________________________________________________________
dense_21 (Dense)                (None, 10)           110         batch_normalization_20[0][0]     
__________________________________________________________________________________________________
dropout_18 (Dropout)            (None, 10)           0           dense_18[0][0]                   
__________________________________________________________________________________________________
dropout_21 (Dropout)            (None, 10)           0           dense_21[0][0]                   
__________________________________________________________________________________________________
batch_normalization_18 (BatchNo (None, 10)           40          dropout_18[0][0]                 
__________________________________________________________________________________________________
batch_normalization_21 (BatchNo (None, 10)           40          dropout_21[0][0]                 
__________________________________________________________________________________________________
multiply_1 (Multiply)           (None, 10)           0           batch_normalization_18[0][0]     
                                                                 batch_normalization_21[0][0]     
__________________________________________________________________________________________________
dense_22 (Dense)                (None, 128)          1408        multiply_1[0][0]                 
__________________________________________________________________________________________________
dropout_22 (Dropout)            (None, 128)          0           dense_22[0][0]                   
__________________________________________________________________________________________________
batch_normalization_22 (BatchNo (None, 128)          512         dropout_22[0][0]                 
__________________________________________________________________________________________________
dense_23 (Dense)                (None, 128)          16512       batch_normalization_22[0][0]     
__________________________________________________________________________________________________
dropout_23 (Dropout)            (None, 128)          0           dense_23[0][0]                   
__________________________________________________________________________________________________
batch_normalization_23 (BatchNo (None, 128)          512         dropout_23[0][0]                 
__________________________________________________________________________________________________
dense_24 (Dense)                (None, 128)          16512       batch_normalization_23[0][0]     
__________________________________________________________________________________________________
dropout_24 (Dropout)            (None, 128)          0           dense_24[0][0]                   
__________________________________________________________________________________________________
batch_normalization_24 (BatchNo (None, 128)          512         dropout_24[0][0]                 
__________________________________________________________________________________________________
dense_25 (Dense)                (None, 1)            129         batch_normalization_24[0][0]     
==================================================================================================
Total params: 198,205
Trainable params: 195,397
Non-trainable params: 2,808
__________________________________________________________________________________________________
2020-06-24 13:42:14,807: INFO): Fold 1
2020-06-24 13:42:16,418: INFO): Model info:
__________________________________________________________________________________________________
Layer (type)                    Output Shape         Param #     Connected to                     
==================================================================================================
input_6 (InputLayer)            (None, 512)          0                                            
__________________________________________________________________________________________________
input_7 (InputLayer)            (None, 512)          0                                            
__________________________________________________________________________________________________
input_8 (InputLayer)            (None, 181)          0                                            
__________________________________________________________________________________________________
input_9 (InputLayer)            (None, 47)           0                                            
__________________________________________________________________________________________________
input_10 (InputLayer)           (None, 505)          0                                            
__________________________________________________________________________________________________
dense_26 (Dense)                (None, 64)           32832       input_6[0][0]                    
__________________________________________________________________________________________________
dense_29 (Dense)                (None, 64)           32832       input_7[0][0]                    
__________________________________________________________________________________________________
dense_32 (Dense)                (None, 64)           11648       input_8[0][0]                    
__________________________________________________________________________________________________
dense_35 (Dense)                (None, 64)           3072        input_9[0][0]                    
__________________________________________________________________________________________________
dense_38 (Dense)                (None, 64)           32384       input_10[0][0]                   
__________________________________________________________________________________________________
dropout_25 (Dropout)            (None, 64)           0           dense_26[0][0]                   
__________________________________________________________________________________________________
dropout_28 (Dropout)            (None, 64)           0           dense_29[0][0]                   
__________________________________________________________________________________________________
dropout_31 (Dropout)            (None, 64)           0           dense_32[0][0]                   
__________________________________________________________________________________________________
dropout_34 (Dropout)            (None, 64)           0           dense_35[0][0]                   
__________________________________________________________________________________________________
dropout_37 (Dropout)            (None, 64)           0           dense_38[0][0]                   
__________________________________________________________________________________________________
batch_normalization_25 (BatchNo (None, 64)           256         dropout_25[0][0]                 
__________________________________________________________________________________________________
batch_normalization_28 (BatchNo (None, 64)           256         dropout_28[0][0]                 
__________________________________________________________________________________________________
batch_normalization_31 (BatchNo (None, 64)           256         dropout_31[0][0]                 
__________________________________________________________________________________________________
batch_normalization_34 (BatchNo (None, 64)           256         dropout_34[0][0]                 
__________________________________________________________________________________________________
batch_normalization_37 (BatchNo (None, 64)           256         dropout_37[0][0]                 
__________________________________________________________________________________________________
dense_27 (Dense)                (None, 64)           4160        batch_normalization_25[0][0]     
__________________________________________________________________________________________________
dense_30 (Dense)                (None, 64)           4160        batch_normalization_28[0][0]     
__________________________________________________________________________________________________
dense_33 (Dense)                (None, 64)           4160        batch_normalization_31[0][0]     
__________________________________________________________________________________________________
dense_36 (Dense)                (None, 64)           4160        batch_normalization_34[0][0]     
__________________________________________________________________________________________________
dense_39 (Dense)                (None, 64)           4160        batch_normalization_37[0][0]     
__________________________________________________________________________________________________
dropout_26 (Dropout)            (None, 64)           0           dense_27[0][0]                   
__________________________________________________________________________________________________
dropout_29 (Dropout)            (None, 64)           0           dense_30[0][0]                   
__________________________________________________________________________________________________
dropout_32 (Dropout)            (None, 64)           0           dense_33[0][0]                   
__________________________________________________________________________________________________
dropout_35 (Dropout)            (None, 64)           0           dense_36[0][0]                   
__________________________________________________________________________________________________
dropout_38 (Dropout)            (None, 64)           0           dense_39[0][0]                   
__________________________________________________________________________________________________
batch_normalization_26 (BatchNo (None, 64)           256         dropout_26[0][0]                 
__________________________________________________________________________________________________
batch_normalization_29 (BatchNo (None, 64)           256         dropout_29[0][0]                 
__________________________________________________________________________________________________
batch_normalization_32 (BatchNo (None, 64)           256         dropout_32[0][0]                 
__________________________________________________________________________________________________
batch_normalization_35 (BatchNo (None, 64)           256         dropout_35[0][0]                 
__________________________________________________________________________________________________
batch_normalization_38 (BatchNo (None, 64)           256         dropout_38[0][0]                 
__________________________________________________________________________________________________
dense_28 (Dense)                (None, 64)           4160        batch_normalization_26[0][0]     
__________________________________________________________________________________________________
dense_31 (Dense)                (None, 64)           4160        batch_normalization_29[0][0]     
__________________________________________________________________________________________________
dense_34 (Dense)                (None, 64)           4160        batch_normalization_32[0][0]     
__________________________________________________________________________________________________
dense_37 (Dense)                (None, 64)           4160        batch_normalization_35[0][0]     
__________________________________________________________________________________________________
dense_40 (Dense)                (None, 64)           4160        batch_normalization_38[0][0]     
__________________________________________________________________________________________________
dropout_27 (Dropout)            (None, 64)           0           dense_28[0][0]                   
__________________________________________________________________________________________________
dropout_30 (Dropout)            (None, 64)           0           dense_31[0][0]                   
__________________________________________________________________________________________________
dropout_33 (Dropout)            (None, 64)           0           dense_34[0][0]                   
__________________________________________________________________________________________________
dropout_36 (Dropout)            (None, 64)           0           dense_37[0][0]                   
__________________________________________________________________________________________________
dropout_39 (Dropout)            (None, 64)           0           dense_40[0][0]                   
__________________________________________________________________________________________________
batch_normalization_27 (BatchNo (None, 64)           256         dropout_27[0][0]                 
__________________________________________________________________________________________________
batch_normalization_30 (BatchNo (None, 64)           256         dropout_30[0][0]                 
__________________________________________________________________________________________________
batch_normalization_33 (BatchNo (None, 64)           256         dropout_33[0][0]                 
__________________________________________________________________________________________________
batch_normalization_36 (BatchNo (None, 64)           256         dropout_36[0][0]                 
__________________________________________________________________________________________________
batch_normalization_39 (BatchNo (None, 64)           256         dropout_39[0][0]                 
__________________________________________________________________________________________________
concatenate_3 (Concatenate)     (None, 128)          0           batch_normalization_27[0][0]     
                                                                 batch_normalization_30[0][0]     
__________________________________________________________________________________________________
concatenate_4 (Concatenate)     (None, 192)          0           batch_normalization_33[0][0]     
                                                                 batch_normalization_36[0][0]     
                                                                 batch_normalization_39[0][0]     
__________________________________________________________________________________________________
dense_41 (Dense)                (None, 10)           1290        concatenate_3[0][0]              
__________________________________________________________________________________________________
dense_44 (Dense)                (None, 10)           1930        concatenate_4[0][0]              
__________________________________________________________________________________________________
dropout_40 (Dropout)            (None, 10)           0           dense_41[0][0]                   
__________________________________________________________________________________________________
dropout_43 (Dropout)            (None, 10)           0           dense_44[0][0]                   
__________________________________________________________________________________________________
batch_normalization_40 (BatchNo (None, 10)           40          dropout_40[0][0]                 
__________________________________________________________________________________________________
batch_normalization_43 (BatchNo (None, 10)           40          dropout_43[0][0]                 
__________________________________________________________________________________________________
dense_42 (Dense)                (None, 10)           110         batch_normalization_40[0][0]     
__________________________________________________________________________________________________
dense_45 (Dense)                (None, 10)           110         batch_normalization_43[0][0]     
__________________________________________________________________________________________________
dropout_41 (Dropout)            (None, 10)           0           dense_42[0][0]                   
__________________________________________________________________________________________________
dropout_44 (Dropout)            (None, 10)           0           dense_45[0][0]                   
__________________________________________________________________________________________________
batch_normalization_41 (BatchNo (None, 10)           40          dropout_41[0][0]                 
__________________________________________________________________________________________________
batch_normalization_44 (BatchNo (None, 10)           40          dropout_44[0][0]                 
__________________________________________________________________________________________________
dense_43 (Dense)                (None, 10)           110         batch_normalization_41[0][0]     
__________________________________________________________________________________________________
dense_46 (Dense)                (None, 10)           110         batch_normalization_44[0][0]     
__________________________________________________________________________________________________
dropout_42 (Dropout)            (None, 10)           0           dense_43[0][0]                   
__________________________________________________________________________________________________
dropout_45 (Dropout)            (None, 10)           0           dense_46[0][0]                   
__________________________________________________________________________________________________
batch_normalization_42 (BatchNo (None, 10)           40          dropout_42[0][0]                 
__________________________________________________________________________________________________
batch_normalization_45 (BatchNo (None, 10)           40          dropout_45[0][0]                 
__________________________________________________________________________________________________
multiply_2 (Multiply)           (None, 10)           0           batch_normalization_42[0][0]     
                                                                 batch_normalization_45[0][0]     
__________________________________________________________________________________________________
dense_47 (Dense)                (None, 128)          1408        multiply_2[0][0]                 
__________________________________________________________________________________________________
dropout_46 (Dropout)            (None, 128)          0           dense_47[0][0]                   
__________________________________________________________________________________________________
batch_normalization_46 (BatchNo (None, 128)          512         dropout_46[0][0]                 
__________________________________________________________________________________________________
dense_48 (Dense)                (None, 128)          16512       batch_normalization_46[0][0]     
__________________________________________________________________________________________________
dropout_47 (Dropout)            (None, 128)          0           dense_48[0][0]                   
__________________________________________________________________________________________________
batch_normalization_47 (BatchNo (None, 128)          512         dropout_47[0][0]                 
__________________________________________________________________________________________________
dense_49 (Dense)                (None, 128)          16512       batch_normalization_47[0][0]     
__________________________________________________________________________________________________
dropout_48 (Dropout)            (None, 128)          0           dense_49[0][0]                   
__________________________________________________________________________________________________
batch_normalization_48 (BatchNo (None, 128)          512         dropout_48[0][0]                 
__________________________________________________________________________________________________
dense_50 (Dense)                (None, 1)            129         batch_normalization_48[0][0]     
==================================================================================================
Total params: 198,205
Trainable params: 195,397
Non-trainable params: 2,808
__________________________________________________________________________________________________
2020-06-24 13:43:04,533: INFO): Fold 2
2020-06-24 13:43:06,326: INFO): Model info:
__________________________________________________________________________________________________
Layer (type)                    Output Shape         Param #     Connected to                     
==================================================================================================
input_11 (InputLayer)           (None, 512)          0                                            
__________________________________________________________________________________________________
input_12 (InputLayer)           (None, 512)          0                                            
__________________________________________________________________________________________________
input_13 (InputLayer)           (None, 181)          0                                            
__________________________________________________________________________________________________
input_14 (InputLayer)           (None, 47)           0                                            
__________________________________________________________________________________________________
input_15 (InputLayer)           (None, 505)          0                                            
__________________________________________________________________________________________________
dense_51 (Dense)                (None, 64)           32832       input_11[0][0]                   
__________________________________________________________________________________________________
dense_54 (Dense)                (None, 64)           32832       input_12[0][0]                   
__________________________________________________________________________________________________
dense_57 (Dense)                (None, 64)           11648       input_13[0][0]                   
__________________________________________________________________________________________________
dense_60 (Dense)                (None, 64)           3072        input_14[0][0]                   
__________________________________________________________________________________________________
dense_63 (Dense)                (None, 64)           32384       input_15[0][0]                   
__________________________________________________________________________________________________
dropout_49 (Dropout)            (None, 64)           0           dense_51[0][0]                   
__________________________________________________________________________________________________
dropout_52 (Dropout)            (None, 64)           0           dense_54[0][0]                   
__________________________________________________________________________________________________
dropout_55 (Dropout)            (None, 64)           0           dense_57[0][0]                   
__________________________________________________________________________________________________
dropout_58 (Dropout)            (None, 64)           0           dense_60[0][0]                   
__________________________________________________________________________________________________
dropout_61 (Dropout)            (None, 64)           0           dense_63[0][0]                   
__________________________________________________________________________________________________
batch_normalization_49 (BatchNo (None, 64)           256         dropout_49[0][0]                 
__________________________________________________________________________________________________
batch_normalization_52 (BatchNo (None, 64)           256         dropout_52[0][0]                 
__________________________________________________________________________________________________
batch_normalization_55 (BatchNo (None, 64)           256         dropout_55[0][0]                 
__________________________________________________________________________________________________
batch_normalization_58 (BatchNo (None, 64)           256         dropout_58[0][0]                 
__________________________________________________________________________________________________
batch_normalization_61 (BatchNo (None, 64)           256         dropout_61[0][0]                 
__________________________________________________________________________________________________
dense_52 (Dense)                (None, 64)           4160        batch_normalization_49[0][0]     
__________________________________________________________________________________________________
dense_55 (Dense)                (None, 64)           4160        batch_normalization_52[0][0]     
__________________________________________________________________________________________________
dense_58 (Dense)                (None, 64)           4160        batch_normalization_55[0][0]     
__________________________________________________________________________________________________
dense_61 (Dense)                (None, 64)           4160        batch_normalization_58[0][0]     
__________________________________________________________________________________________________
dense_64 (Dense)                (None, 64)           4160        batch_normalization_61[0][0]     
__________________________________________________________________________________________________
dropout_50 (Dropout)            (None, 64)           0           dense_52[0][0]                   
__________________________________________________________________________________________________
dropout_53 (Dropout)            (None, 64)           0           dense_55[0][0]                   
__________________________________________________________________________________________________
dropout_56 (Dropout)            (None, 64)           0           dense_58[0][0]                   
__________________________________________________________________________________________________
dropout_59 (Dropout)            (None, 64)           0           dense_61[0][0]                   
__________________________________________________________________________________________________
dropout_62 (Dropout)            (None, 64)           0           dense_64[0][0]                   
__________________________________________________________________________________________________
batch_normalization_50 (BatchNo (None, 64)           256         dropout_50[0][0]                 
__________________________________________________________________________________________________
batch_normalization_53 (BatchNo (None, 64)           256         dropout_53[0][0]                 
__________________________________________________________________________________________________
batch_normalization_56 (BatchNo (None, 64)           256         dropout_56[0][0]                 
__________________________________________________________________________________________________
batch_normalization_59 (BatchNo (None, 64)           256         dropout_59[0][0]                 
__________________________________________________________________________________________________
batch_normalization_62 (BatchNo (None, 64)           256         dropout_62[0][0]                 
__________________________________________________________________________________________________
dense_53 (Dense)                (None, 64)           4160        batch_normalization_50[0][0]     
__________________________________________________________________________________________________
dense_56 (Dense)                (None, 64)           4160        batch_normalization_53[0][0]     
__________________________________________________________________________________________________
dense_59 (Dense)                (None, 64)           4160        batch_normalization_56[0][0]     
__________________________________________________________________________________________________
dense_62 (Dense)                (None, 64)           4160        batch_normalization_59[0][0]     
__________________________________________________________________________________________________
dense_65 (Dense)                (None, 64)           4160        batch_normalization_62[0][0]     
__________________________________________________________________________________________________
dropout_51 (Dropout)            (None, 64)           0           dense_53[0][0]                   
__________________________________________________________________________________________________
dropout_54 (Dropout)            (None, 64)           0           dense_56[0][0]                   
__________________________________________________________________________________________________
dropout_57 (Dropout)            (None, 64)           0           dense_59[0][0]                   
__________________________________________________________________________________________________
dropout_60 (Dropout)            (None, 64)           0           dense_62[0][0]                   
__________________________________________________________________________________________________
dropout_63 (Dropout)            (None, 64)           0           dense_65[0][0]                   
__________________________________________________________________________________________________
batch_normalization_51 (BatchNo (None, 64)           256         dropout_51[0][0]                 
__________________________________________________________________________________________________
batch_normalization_54 (BatchNo (None, 64)           256         dropout_54[0][0]                 
__________________________________________________________________________________________________
batch_normalization_57 (BatchNo (None, 64)           256         dropout_57[0][0]                 
__________________________________________________________________________________________________
batch_normalization_60 (BatchNo (None, 64)           256         dropout_60[0][0]                 
__________________________________________________________________________________________________
batch_normalization_63 (BatchNo (None, 64)           256         dropout_63[0][0]                 
__________________________________________________________________________________________________
concatenate_5 (Concatenate)     (None, 128)          0           batch_normalization_51[0][0]     
                                                                 batch_normalization_54[0][0]     
__________________________________________________________________________________________________
concatenate_6 (Concatenate)     (None, 192)          0           batch_normalization_57[0][0]     
                                                                 batch_normalization_60[0][0]     
                                                                 batch_normalization_63[0][0]     
__________________________________________________________________________________________________
dense_66 (Dense)                (None, 10)           1290        concatenate_5[0][0]              
__________________________________________________________________________________________________
dense_69 (Dense)                (None, 10)           1930        concatenate_6[0][0]              
__________________________________________________________________________________________________
dropout_64 (Dropout)            (None, 10)           0           dense_66[0][0]                   
__________________________________________________________________________________________________
dropout_67 (Dropout)            (None, 10)           0           dense_69[0][0]                   
__________________________________________________________________________________________________
batch_normalization_64 (BatchNo (None, 10)           40          dropout_64[0][0]                 
__________________________________________________________________________________________________
batch_normalization_67 (BatchNo (None, 10)           40          dropout_67[0][0]                 
__________________________________________________________________________________________________
dense_67 (Dense)                (None, 10)           110         batch_normalization_64[0][0]     
__________________________________________________________________________________________________
dense_70 (Dense)                (None, 10)           110         batch_normalization_67[0][0]     
__________________________________________________________________________________________________
dropout_65 (Dropout)            (None, 10)           0           dense_67[0][0]                   
__________________________________________________________________________________________________
dropout_68 (Dropout)            (None, 10)           0           dense_70[0][0]                   
__________________________________________________________________________________________________
batch_normalization_65 (BatchNo (None, 10)           40          dropout_65[0][0]                 
__________________________________________________________________________________________________
batch_normalization_68 (BatchNo (None, 10)           40          dropout_68[0][0]                 
__________________________________________________________________________________________________
dense_68 (Dense)                (None, 10)           110         batch_normalization_65[0][0]     
__________________________________________________________________________________________________
dense_71 (Dense)                (None, 10)           110         batch_normalization_68[0][0]     
__________________________________________________________________________________________________
dropout_66 (Dropout)            (None, 10)           0           dense_68[0][0]                   
__________________________________________________________________________________________________
dropout_69 (Dropout)            (None, 10)           0           dense_71[0][0]                   
__________________________________________________________________________________________________
batch_normalization_66 (BatchNo (None, 10)           40          dropout_66[0][0]                 
__________________________________________________________________________________________________
batch_normalization_69 (BatchNo (None, 10)           40          dropout_69[0][0]                 
__________________________________________________________________________________________________
multiply_3 (Multiply)           (None, 10)           0           batch_normalization_66[0][0]     
                                                                 batch_normalization_69[0][0]     
__________________________________________________________________________________________________
dense_72 (Dense)                (None, 128)          1408        multiply_3[0][0]                 
__________________________________________________________________________________________________
dropout_70 (Dropout)            (None, 128)          0           dense_72[0][0]                   
__________________________________________________________________________________________________
batch_normalization_70 (BatchNo (None, 128)          512         dropout_70[0][0]                 
__________________________________________________________________________________________________
dense_73 (Dense)                (None, 128)          16512       batch_normalization_70[0][0]     
__________________________________________________________________________________________________
dropout_71 (Dropout)            (None, 128)          0           dense_73[0][0]                   
__________________________________________________________________________________________________
batch_normalization_71 (BatchNo (None, 128)          512         dropout_71[0][0]                 
__________________________________________________________________________________________________
dense_74 (Dense)                (None, 128)          16512       batch_normalization_71[0][0]     
__________________________________________________________________________________________________
dropout_72 (Dropout)            (None, 128)          0           dense_74[0][0]                   
__________________________________________________________________________________________________
batch_normalization_72 (BatchNo (None, 128)          512         dropout_72[0][0]                 
__________________________________________________________________________________________________
dense_75 (Dense)                (None, 1)            129         batch_normalization_72[0][0]     
==================================================================================================
Total params: 198,205
Trainable params: 195,397
Non-trainable params: 2,808
__________________________________________________________________________________________________
2020-06-24 13:43:56,929: INFO): Fold 3
2020-06-24 13:43:58,926: INFO): Model info:
__________________________________________________________________________________________________
Layer (type)                    Output Shape         Param #     Connected to                     
==================================================================================================
input_16 (InputLayer)           (None, 512)          0                                            
__________________________________________________________________________________________________
input_17 (InputLayer)           (None, 512)          0                                            
__________________________________________________________________________________________________
input_18 (InputLayer)           (None, 181)          0                                            
__________________________________________________________________________________________________
input_19 (InputLayer)           (None, 47)           0                                            
__________________________________________________________________________________________________
input_20 (InputLayer)           (None, 505)          0                                            
__________________________________________________________________________________________________
dense_76 (Dense)                (None, 64)           32832       input_16[0][0]                   
__________________________________________________________________________________________________
dense_79 (Dense)                (None, 64)           32832       input_17[0][0]                   
__________________________________________________________________________________________________
dense_82 (Dense)                (None, 64)           11648       input_18[0][0]                   
__________________________________________________________________________________________________
dense_85 (Dense)                (None, 64)           3072        input_19[0][0]                   
__________________________________________________________________________________________________
dense_88 (Dense)                (None, 64)           32384       input_20[0][0]                   
__________________________________________________________________________________________________
dropout_73 (Dropout)            (None, 64)           0           dense_76[0][0]                   
__________________________________________________________________________________________________
dropout_76 (Dropout)            (None, 64)           0           dense_79[0][0]                   
__________________________________________________________________________________________________
dropout_79 (Dropout)            (None, 64)           0           dense_82[0][0]                   
__________________________________________________________________________________________________
dropout_82 (Dropout)            (None, 64)           0           dense_85[0][0]                   
__________________________________________________________________________________________________
dropout_85 (Dropout)            (None, 64)           0           dense_88[0][0]                   
__________________________________________________________________________________________________
batch_normalization_73 (BatchNo (None, 64)           256         dropout_73[0][0]                 
__________________________________________________________________________________________________
batch_normalization_76 (BatchNo (None, 64)           256         dropout_76[0][0]                 
__________________________________________________________________________________________________
batch_normalization_79 (BatchNo (None, 64)           256         dropout_79[0][0]                 
__________________________________________________________________________________________________
batch_normalization_82 (BatchNo (None, 64)           256         dropout_82[0][0]                 
__________________________________________________________________________________________________
batch_normalization_85 (BatchNo (None, 64)           256         dropout_85[0][0]                 
__________________________________________________________________________________________________
dense_77 (Dense)                (None, 64)           4160        batch_normalization_73[0][0]     
__________________________________________________________________________________________________
dense_80 (Dense)                (None, 64)           4160        batch_normalization_76[0][0]     
__________________________________________________________________________________________________
dense_83 (Dense)                (None, 64)           4160        batch_normalization_79[0][0]     
__________________________________________________________________________________________________
dense_86 (Dense)                (None, 64)           4160        batch_normalization_82[0][0]     
__________________________________________________________________________________________________
dense_89 (Dense)                (None, 64)           4160        batch_normalization_85[0][0]     
__________________________________________________________________________________________________
dropout_74 (Dropout)            (None, 64)           0           dense_77[0][0]                   
__________________________________________________________________________________________________
dropout_77 (Dropout)            (None, 64)           0           dense_80[0][0]                   
__________________________________________________________________________________________________
dropout_80 (Dropout)            (None, 64)           0           dense_83[0][0]                   
__________________________________________________________________________________________________
dropout_83 (Dropout)            (None, 64)           0           dense_86[0][0]                   
__________________________________________________________________________________________________
dropout_86 (Dropout)            (None, 64)           0           dense_89[0][0]                   
__________________________________________________________________________________________________
batch_normalization_74 (BatchNo (None, 64)           256         dropout_74[0][0]                 
__________________________________________________________________________________________________
batch_normalization_77 (BatchNo (None, 64)           256         dropout_77[0][0]                 
__________________________________________________________________________________________________
batch_normalization_80 (BatchNo (None, 64)           256         dropout_80[0][0]                 
__________________________________________________________________________________________________
batch_normalization_83 (BatchNo (None, 64)           256         dropout_83[0][0]                 
__________________________________________________________________________________________________
batch_normalization_86 (BatchNo (None, 64)           256         dropout_86[0][0]                 
__________________________________________________________________________________________________
dense_78 (Dense)                (None, 64)           4160        batch_normalization_74[0][0]     
__________________________________________________________________________________________________
dense_81 (Dense)                (None, 64)           4160        batch_normalization_77[0][0]     
__________________________________________________________________________________________________
dense_84 (Dense)                (None, 64)           4160        batch_normalization_80[0][0]     
__________________________________________________________________________________________________
dense_87 (Dense)                (None, 64)           4160        batch_normalization_83[0][0]     
__________________________________________________________________________________________________
dense_90 (Dense)                (None, 64)           4160        batch_normalization_86[0][0]     
__________________________________________________________________________________________________
dropout_75 (Dropout)            (None, 64)           0           dense_78[0][0]                   
__________________________________________________________________________________________________
dropout_78 (Dropout)            (None, 64)           0           dense_81[0][0]                   
__________________________________________________________________________________________________
dropout_81 (Dropout)            (None, 64)           0           dense_84[0][0]                   
__________________________________________________________________________________________________
dropout_84 (Dropout)            (None, 64)           0           dense_87[0][0]                   
__________________________________________________________________________________________________
dropout_87 (Dropout)            (None, 64)           0           dense_90[0][0]                   
__________________________________________________________________________________________________
batch_normalization_75 (BatchNo (None, 64)           256         dropout_75[0][0]                 
__________________________________________________________________________________________________
batch_normalization_78 (BatchNo (None, 64)           256         dropout_78[0][0]                 
__________________________________________________________________________________________________
batch_normalization_81 (BatchNo (None, 64)           256         dropout_81[0][0]                 
__________________________________________________________________________________________________
batch_normalization_84 (BatchNo (None, 64)           256         dropout_84[0][0]                 
__________________________________________________________________________________________________
batch_normalization_87 (BatchNo (None, 64)           256         dropout_87[0][0]                 
__________________________________________________________________________________________________
concatenate_7 (Concatenate)     (None, 128)          0           batch_normalization_75[0][0]     
                                                                 batch_normalization_78[0][0]     
__________________________________________________________________________________________________
concatenate_8 (Concatenate)     (None, 192)          0           batch_normalization_81[0][0]     
                                                                 batch_normalization_84[0][0]     
                                                                 batch_normalization_87[0][0]     
__________________________________________________________________________________________________
dense_91 (Dense)                (None, 10)           1290        concatenate_7[0][0]              
__________________________________________________________________________________________________
dense_94 (Dense)                (None, 10)           1930        concatenate_8[0][0]              
__________________________________________________________________________________________________
dropout_88 (Dropout)            (None, 10)           0           dense_91[0][0]                   
__________________________________________________________________________________________________
dropout_91 (Dropout)            (None, 10)           0           dense_94[0][0]                   
__________________________________________________________________________________________________
batch_normalization_88 (BatchNo (None, 10)           40          dropout_88[0][0]                 
__________________________________________________________________________________________________
batch_normalization_91 (BatchNo (None, 10)           40          dropout_91[0][0]                 
__________________________________________________________________________________________________
dense_92 (Dense)                (None, 10)           110         batch_normalization_88[0][0]     
__________________________________________________________________________________________________
dense_95 (Dense)                (None, 10)           110         batch_normalization_91[0][0]     
__________________________________________________________________________________________________
dropout_89 (Dropout)            (None, 10)           0           dense_92[0][0]                   
__________________________________________________________________________________________________
dropout_92 (Dropout)            (None, 10)           0           dense_95[0][0]                   
__________________________________________________________________________________________________
batch_normalization_89 (BatchNo (None, 10)           40          dropout_89[0][0]                 
__________________________________________________________________________________________________
batch_normalization_92 (BatchNo (None, 10)           40          dropout_92[0][0]                 
__________________________________________________________________________________________________
dense_93 (Dense)                (None, 10)           110         batch_normalization_89[0][0]     
__________________________________________________________________________________________________
dense_96 (Dense)                (None, 10)           110         batch_normalization_92[0][0]     
__________________________________________________________________________________________________
dropout_90 (Dropout)            (None, 10)           0           dense_93[0][0]                   
__________________________________________________________________________________________________
dropout_93 (Dropout)            (None, 10)           0           dense_96[0][0]                   
__________________________________________________________________________________________________
batch_normalization_90 (BatchNo (None, 10)           40          dropout_90[0][0]                 
__________________________________________________________________________________________________
batch_normalization_93 (BatchNo (None, 10)           40          dropout_93[0][0]                 
__________________________________________________________________________________________________
multiply_4 (Multiply)           (None, 10)           0           batch_normalization_90[0][0]     
                                                                 batch_normalization_93[0][0]     
__________________________________________________________________________________________________
dense_97 (Dense)                (None, 128)          1408        multiply_4[0][0]                 
__________________________________________________________________________________________________
dropout_94 (Dropout)            (None, 128)          0           dense_97[0][0]                   
__________________________________________________________________________________________________
batch_normalization_94 (BatchNo (None, 128)          512         dropout_94[0][0]                 
__________________________________________________________________________________________________
dense_98 (Dense)                (None, 128)          16512       batch_normalization_94[0][0]     
__________________________________________________________________________________________________
dropout_95 (Dropout)            (None, 128)          0           dense_98[0][0]                   
__________________________________________________________________________________________________
batch_normalization_95 (BatchNo (None, 128)          512         dropout_95[0][0]                 
__________________________________________________________________________________________________
dense_99 (Dense)                (None, 128)          16512       batch_normalization_95[0][0]     
__________________________________________________________________________________________________
dropout_96 (Dropout)            (None, 128)          0           dense_99[0][0]                   
__________________________________________________________________________________________________
batch_normalization_96 (BatchNo (None, 128)          512         dropout_96[0][0]                 
__________________________________________________________________________________________________
dense_100 (Dense)               (None, 1)            129         batch_normalization_96[0][0]     
==================================================================================================
Total params: 198,205
Trainable params: 195,397
Non-trainable params: 2,808
__________________________________________________________________________________________________
2020-06-24 13:44:51,521: INFO): Fold 4
2020-06-24 13:44:53,505: INFO): Model info:
__________________________________________________________________________________________________
Layer (type)                    Output Shape         Param #     Connected to                     
==================================================================================================
input_21 (InputLayer)           (None, 512)          0                                            
__________________________________________________________________________________________________
input_22 (InputLayer)           (None, 512)          0                                            
__________________________________________________________________________________________________
input_23 (InputLayer)           (None, 181)          0                                            
__________________________________________________________________________________________________
input_24 (InputLayer)           (None, 47)           0                                            
__________________________________________________________________________________________________
input_25 (InputLayer)           (None, 505)          0                                            
__________________________________________________________________________________________________
dense_101 (Dense)               (None, 64)           32832       input_21[0][0]                   
__________________________________________________________________________________________________
dense_104 (Dense)               (None, 64)           32832       input_22[0][0]                   
__________________________________________________________________________________________________
dense_107 (Dense)               (None, 64)           11648       input_23[0][0]                   
__________________________________________________________________________________________________
dense_110 (Dense)               (None, 64)           3072        input_24[0][0]                   
__________________________________________________________________________________________________
dense_113 (Dense)               (None, 64)           32384       input_25[0][0]                   
__________________________________________________________________________________________________
dropout_97 (Dropout)            (None, 64)           0           dense_101[0][0]                  
__________________________________________________________________________________________________
dropout_100 (Dropout)           (None, 64)           0           dense_104[0][0]                  
__________________________________________________________________________________________________
dropout_103 (Dropout)           (None, 64)           0           dense_107[0][0]                  
__________________________________________________________________________________________________
dropout_106 (Dropout)           (None, 64)           0           dense_110[0][0]                  
__________________________________________________________________________________________________
dropout_109 (Dropout)           (None, 64)           0           dense_113[0][0]                  
__________________________________________________________________________________________________
batch_normalization_97 (BatchNo (None, 64)           256         dropout_97[0][0]                 
__________________________________________________________________________________________________
batch_normalization_100 (BatchN (None, 64)           256         dropout_100[0][0]                
__________________________________________________________________________________________________
batch_normalization_103 (BatchN (None, 64)           256         dropout_103[0][0]                
__________________________________________________________________________________________________
batch_normalization_106 (BatchN (None, 64)           256         dropout_106[0][0]                
__________________________________________________________________________________________________
batch_normalization_109 (BatchN (None, 64)           256         dropout_109[0][0]                
__________________________________________________________________________________________________
dense_102 (Dense)               (None, 64)           4160        batch_normalization_97[0][0]     
__________________________________________________________________________________________________
dense_105 (Dense)               (None, 64)           4160        batch_normalization_100[0][0]    
__________________________________________________________________________________________________
dense_108 (Dense)               (None, 64)           4160        batch_normalization_103[0][0]    
__________________________________________________________________________________________________
dense_111 (Dense)               (None, 64)           4160        batch_normalization_106[0][0]    
__________________________________________________________________________________________________
dense_114 (Dense)               (None, 64)           4160        batch_normalization_109[0][0]    
__________________________________________________________________________________________________
dropout_98 (Dropout)            (None, 64)           0           dense_102[0][0]                  
__________________________________________________________________________________________________
dropout_101 (Dropout)           (None, 64)           0           dense_105[0][0]                  
__________________________________________________________________________________________________
dropout_104 (Dropout)           (None, 64)           0           dense_108[0][0]                  
__________________________________________________________________________________________________
dropout_107 (Dropout)           (None, 64)           0           dense_111[0][0]                  
__________________________________________________________________________________________________
dropout_110 (Dropout)           (None, 64)           0           dense_114[0][0]                  
__________________________________________________________________________________________________
batch_normalization_98 (BatchNo (None, 64)           256         dropout_98[0][0]                 
__________________________________________________________________________________________________
batch_normalization_101 (BatchN (None, 64)           256         dropout_101[0][0]                
__________________________________________________________________________________________________
batch_normalization_104 (BatchN (None, 64)           256         dropout_104[0][0]                
__________________________________________________________________________________________________
batch_normalization_107 (BatchN (None, 64)           256         dropout_107[0][0]                
__________________________________________________________________________________________________
batch_normalization_110 (BatchN (None, 64)           256         dropout_110[0][0]                
__________________________________________________________________________________________________
dense_103 (Dense)               (None, 64)           4160        batch_normalization_98[0][0]     
__________________________________________________________________________________________________
dense_106 (Dense)               (None, 64)           4160        batch_normalization_101[0][0]    
__________________________________________________________________________________________________
dense_109 (Dense)               (None, 64)           4160        batch_normalization_104[0][0]    
__________________________________________________________________________________________________
dense_112 (Dense)               (None, 64)           4160        batch_normalization_107[0][0]    
__________________________________________________________________________________________________
dense_115 (Dense)               (None, 64)           4160        batch_normalization_110[0][0]    
__________________________________________________________________________________________________
dropout_99 (Dropout)            (None, 64)           0           dense_103[0][0]                  
__________________________________________________________________________________________________
dropout_102 (Dropout)           (None, 64)           0           dense_106[0][0]                  
__________________________________________________________________________________________________
dropout_105 (Dropout)           (None, 64)           0           dense_109[0][0]                  
__________________________________________________________________________________________________
dropout_108 (Dropout)           (None, 64)           0           dense_112[0][0]                  
__________________________________________________________________________________________________
dropout_111 (Dropout)           (None, 64)           0           dense_115[0][0]                  
__________________________________________________________________________________________________
batch_normalization_99 (BatchNo (None, 64)           256         dropout_99[0][0]                 
__________________________________________________________________________________________________
batch_normalization_102 (BatchN (None, 64)           256         dropout_102[0][0]                
__________________________________________________________________________________________________
batch_normalization_105 (BatchN (None, 64)           256         dropout_105[0][0]                
__________________________________________________________________________________________________
batch_normalization_108 (BatchN (None, 64)           256         dropout_108[0][0]                
__________________________________________________________________________________________________
batch_normalization_111 (BatchN (None, 64)           256         dropout_111[0][0]                
__________________________________________________________________________________________________
concatenate_9 (Concatenate)     (None, 128)          0           batch_normalization_99[0][0]     
                                                                 batch_normalization_102[0][0]    
__________________________________________________________________________________________________
concatenate_10 (Concatenate)    (None, 192)          0           batch_normalization_105[0][0]    
                                                                 batch_normalization_108[0][0]    
                                                                 batch_normalization_111[0][0]    
__________________________________________________________________________________________________
dense_116 (Dense)               (None, 10)           1290        concatenate_9[0][0]              
__________________________________________________________________________________________________
dense_119 (Dense)               (None, 10)           1930        concatenate_10[0][0]             
__________________________________________________________________________________________________
dropout_112 (Dropout)           (None, 10)           0           dense_116[0][0]                  
__________________________________________________________________________________________________
dropout_115 (Dropout)           (None, 10)           0           dense_119[0][0]                  
__________________________________________________________________________________________________
batch_normalization_112 (BatchN (None, 10)           40          dropout_112[0][0]                
__________________________________________________________________________________________________
batch_normalization_115 (BatchN (None, 10)           40          dropout_115[0][0]                
__________________________________________________________________________________________________
dense_117 (Dense)               (None, 10)           110         batch_normalization_112[0][0]    
__________________________________________________________________________________________________
dense_120 (Dense)               (None, 10)           110         batch_normalization_115[0][0]    
__________________________________________________________________________________________________
dropout_113 (Dropout)           (None, 10)           0           dense_117[0][0]                  
__________________________________________________________________________________________________
dropout_116 (Dropout)           (None, 10)           0           dense_120[0][0]                  
__________________________________________________________________________________________________
batch_normalization_113 (BatchN (None, 10)           40          dropout_113[0][0]                
__________________________________________________________________________________________________
batch_normalization_116 (BatchN (None, 10)           40          dropout_116[0][0]                
__________________________________________________________________________________________________
dense_118 (Dense)               (None, 10)           110         batch_normalization_113[0][0]    
__________________________________________________________________________________________________
dense_121 (Dense)               (None, 10)           110         batch_normalization_116[0][0]    
__________________________________________________________________________________________________
dropout_114 (Dropout)           (None, 10)           0           dense_118[0][0]                  
__________________________________________________________________________________________________
dropout_117 (Dropout)           (None, 10)           0           dense_121[0][0]                  
__________________________________________________________________________________________________
batch_normalization_114 (BatchN (None, 10)           40          dropout_114[0][0]                
__________________________________________________________________________________________________
batch_normalization_117 (BatchN (None, 10)           40          dropout_117[0][0]                
__________________________________________________________________________________________________
multiply_5 (Multiply)           (None, 10)           0           batch_normalization_114[0][0]    
                                                                 batch_normalization_117[0][0]    
__________________________________________________________________________________________________
dense_122 (Dense)               (None, 128)          1408        multiply_5[0][0]                 
__________________________________________________________________________________________________
dropout_118 (Dropout)           (None, 128)          0           dense_122[0][0]                  
__________________________________________________________________________________________________
batch_normalization_118 (BatchN (None, 128)          512         dropout_118[0][0]                
__________________________________________________________________________________________________
dense_123 (Dense)               (None, 128)          16512       batch_normalization_118[0][0]    
__________________________________________________________________________________________________
dropout_119 (Dropout)           (None, 128)          0           dense_123[0][0]                  
__________________________________________________________________________________________________
batch_normalization_119 (BatchN (None, 128)          512         dropout_119[0][0]                
__________________________________________________________________________________________________
dense_124 (Dense)               (None, 128)          16512       batch_normalization_119[0][0]    
__________________________________________________________________________________________________
dropout_120 (Dropout)           (None, 128)          0           dense_124[0][0]                  
__________________________________________________________________________________________________
batch_normalization_120 (BatchN (None, 128)          512         dropout_120[0][0]                
__________________________________________________________________________________________________
dense_125 (Dense)               (None, 1)            129         batch_normalization_120[0][0]    
==================================================================================================
Total params: 198,205
Trainable params: 195,397
Non-trainable params: 2,808
__________________________________________________________________________________________________
2020-06-24 13:45:49,491: INFO): Transfroming mse to rmse, back transformation to Y space
…
