…
2020-06-24 13:32:05,380: INFO): Constant cols eliminated
2020-06-24 13:32:05,381: INFO): data shapes: [(17526, 512), (17526, 512), (17526, 181), (17526, 47), (17526, 505)]
2020-06-24 13:32:05,381: INFO): Normal standarization of Y
2020-06-24 13:32:05,381: INFO): Fold 0
2020-06-24 13:32:05,649: INFO): Model info:
__________________________________________________________________________________________________
Layer (type)                    Output Shape         Param #     Connected to                     
==================================================================================================
input_1 (InputLayer)            (None, 512)          0                                            
__________________________________________________________________________________________________
input_2 (InputLayer)            (None, 512)          0                                            
__________________________________________________________________________________________________
input_3 (InputLayer)            (None, 181)          0                                            
__________________________________________________________________________________________________
input_4 (InputLayer)            (None, 47)           0                                            
__________________________________________________________________________________________________
input_5 (InputLayer)            (None, 505)          0                                            
__________________________________________________________________________________________________
concatenate_1 (Concatenate)     (None, 1024)         0           input_1[0][0]                    
                                                                 input_2[0][0]                    
__________________________________________________________________________________________________
concatenate_2 (Concatenate)     (None, 733)          0           input_3[0][0]                    
                                                                 input_4[0][0]                    
                                                                 input_5[0][0]                    
__________________________________________________________________________________________________
dense_1 (Dense)                 (None, 10)           10250       concatenate_1[0][0]              
__________________________________________________________________________________________________
dense_2 (Dense)                 (None, 10)           7340        concatenate_2[0][0]              
__________________________________________________________________________________________________
dropout_1 (Dropout)             (None, 10)           0           dense_1[0][0]                    
__________________________________________________________________________________________________
dropout_2 (Dropout)             (None, 10)           0           dense_2[0][0]                    
__________________________________________________________________________________________________
batch_normalization_1 (BatchNor (None, 10)           40          dropout_1[0][0]                  
__________________________________________________________________________________________________
batch_normalization_2 (BatchNor (None, 10)           40          dropout_2[0][0]                  
__________________________________________________________________________________________________
multiply_1 (Multiply)           (None, 10)           0           batch_normalization_1[0][0]      
                                                                 batch_normalization_2[0][0]      
__________________________________________________________________________________________________
dense_3 (Dense)                 (None, 128)          1408        multiply_1[0][0]                 
__________________________________________________________________________________________________
dropout_3 (Dropout)             (None, 128)          0           dense_3[0][0]                    
__________________________________________________________________________________________________
batch_normalization_3 (BatchNor (None, 128)          512         dropout_3[0][0]                  
__________________________________________________________________________________________________
dense_4 (Dense)                 (None, 1)            129         batch_normalization_3[0][0]      
==================================================================================================
Total params: 19,719
Trainable params: 19,423
Non-trainable params: 296
__________________________________________________________________________________________________
2020-06-24 13:32:23,517: INFO): Fold 1
2020-06-24 13:32:23,786: INFO): Model info:
__________________________________________________________________________________________________
Layer (type)                    Output Shape         Param #     Connected to                     
==================================================================================================
input_6 (InputLayer)            (None, 512)          0                                            
__________________________________________________________________________________________________
input_7 (InputLayer)            (None, 512)          0                                            
__________________________________________________________________________________________________
input_8 (InputLayer)            (None, 181)          0                                            
__________________________________________________________________________________________________
input_9 (InputLayer)            (None, 47)           0                                            
__________________________________________________________________________________________________
input_10 (InputLayer)           (None, 505)          0                                            
__________________________________________________________________________________________________
concatenate_3 (Concatenate)     (None, 1024)         0           input_6[0][0]                    
                                                                 input_7[0][0]                    
__________________________________________________________________________________________________
concatenate_4 (Concatenate)     (None, 733)          0           input_8[0][0]                    
                                                                 input_9[0][0]                    
                                                                 input_10[0][0]                   
__________________________________________________________________________________________________
dense_5 (Dense)                 (None, 10)           10250       concatenate_3[0][0]              
__________________________________________________________________________________________________
dense_6 (Dense)                 (None, 10)           7340        concatenate_4[0][0]              
__________________________________________________________________________________________________
dropout_4 (Dropout)             (None, 10)           0           dense_5[0][0]                    
__________________________________________________________________________________________________
dropout_5 (Dropout)             (None, 10)           0           dense_6[0][0]                    
__________________________________________________________________________________________________
batch_normalization_4 (BatchNor (None, 10)           40          dropout_4[0][0]                  
__________________________________________________________________________________________________
batch_normalization_5 (BatchNor (None, 10)           40          dropout_5[0][0]                  
__________________________________________________________________________________________________
multiply_2 (Multiply)           (None, 10)           0           batch_normalization_4[0][0]      
                                                                 batch_normalization_5[0][0]      
__________________________________________________________________________________________________
dense_7 (Dense)                 (None, 128)          1408        multiply_2[0][0]                 
__________________________________________________________________________________________________
dropout_6 (Dropout)             (None, 128)          0           dense_7[0][0]                    
__________________________________________________________________________________________________
batch_normalization_6 (BatchNor (None, 128)          512         dropout_6[0][0]                  
__________________________________________________________________________________________________
dense_8 (Dense)                 (None, 1)            129         batch_normalization_6[0][0]      
==================================================================================================
Total params: 19,719
Trainable params: 19,423
Non-trainable params: 296
__________________________________________________________________________________________________
2020-06-24 13:32:41,991: INFO): Fold 2
2020-06-24 13:32:42,268: INFO): Model info:
__________________________________________________________________________________________________
Layer (type)                    Output Shape         Param #     Connected to                     
==================================================================================================
input_11 (InputLayer)           (None, 512)          0                                            
__________________________________________________________________________________________________
input_12 (InputLayer)           (None, 512)          0                                            
__________________________________________________________________________________________________
input_13 (InputLayer)           (None, 181)          0                                            
__________________________________________________________________________________________________
input_14 (InputLayer)           (None, 47)           0                                            
__________________________________________________________________________________________________
input_15 (InputLayer)           (None, 505)          0                                            
__________________________________________________________________________________________________
concatenate_5 (Concatenate)     (None, 1024)         0           input_11[0][0]                   
                                                                 input_12[0][0]                   
__________________________________________________________________________________________________
concatenate_6 (Concatenate)     (None, 733)          0           input_13[0][0]                   
                                                                 input_14[0][0]                   
                                                                 input_15[0][0]                   
__________________________________________________________________________________________________
dense_9 (Dense)                 (None, 10)           10250       concatenate_5[0][0]              
__________________________________________________________________________________________________
dense_10 (Dense)                (None, 10)           7340        concatenate_6[0][0]              
__________________________________________________________________________________________________
dropout_7 (Dropout)             (None, 10)           0           dense_9[0][0]                    
__________________________________________________________________________________________________
dropout_8 (Dropout)             (None, 10)           0           dense_10[0][0]                   
__________________________________________________________________________________________________
batch_normalization_7 (BatchNor (None, 10)           40          dropout_7[0][0]                  
__________________________________________________________________________________________________
batch_normalization_8 (BatchNor (None, 10)           40          dropout_8[0][0]                  
__________________________________________________________________________________________________
multiply_3 (Multiply)           (None, 10)           0           batch_normalization_7[0][0]      
                                                                 batch_normalization_8[0][0]      
__________________________________________________________________________________________________
dense_11 (Dense)                (None, 128)          1408        multiply_3[0][0]                 
__________________________________________________________________________________________________
dropout_9 (Dropout)             (None, 128)          0           dense_11[0][0]                   
__________________________________________________________________________________________________
batch_normalization_9 (BatchNor (None, 128)          512         dropout_9[0][0]                  
__________________________________________________________________________________________________
dense_12 (Dense)                (None, 1)            129         batch_normalization_9[0][0]      
==================================================================================================
Total params: 19,719
Trainable params: 19,423
Non-trainable params: 296
__________________________________________________________________________________________________
2020-06-24 13:33:01,276: INFO): Fold 3
2020-06-24 13:33:01,594: INFO): Model info:
__________________________________________________________________________________________________
Layer (type)                    Output Shape         Param #     Connected to                     
==================================================================================================
input_16 (InputLayer)           (None, 512)          0                                            
__________________________________________________________________________________________________
input_17 (InputLayer)           (None, 512)          0                                            
__________________________________________________________________________________________________
input_18 (InputLayer)           (None, 181)          0                                            
__________________________________________________________________________________________________
input_19 (InputLayer)           (None, 47)           0                                            
__________________________________________________________________________________________________
input_20 (InputLayer)           (None, 505)          0                                            
__________________________________________________________________________________________________
concatenate_7 (Concatenate)     (None, 1024)         0           input_16[0][0]                   
                                                                 input_17[0][0]                   
__________________________________________________________________________________________________
concatenate_8 (Concatenate)     (None, 733)          0           input_18[0][0]                   
                                                                 input_19[0][0]                   
                                                                 input_20[0][0]                   
__________________________________________________________________________________________________
dense_13 (Dense)                (None, 10)           10250       concatenate_7[0][0]              
__________________________________________________________________________________________________
dense_14 (Dense)                (None, 10)           7340        concatenate_8[0][0]              
__________________________________________________________________________________________________
dropout_10 (Dropout)            (None, 10)           0           dense_13[0][0]                   
__________________________________________________________________________________________________
dropout_11 (Dropout)            (None, 10)           0           dense_14[0][0]                   
__________________________________________________________________________________________________
batch_normalization_10 (BatchNo (None, 10)           40          dropout_10[0][0]                 
__________________________________________________________________________________________________
batch_normalization_11 (BatchNo (None, 10)           40          dropout_11[0][0]                 
__________________________________________________________________________________________________
multiply_4 (Multiply)           (None, 10)           0           batch_normalization_10[0][0]     
                                                                 batch_normalization_11[0][0]     
__________________________________________________________________________________________________
dense_15 (Dense)                (None, 128)          1408        multiply_4[0][0]                 
__________________________________________________________________________________________________
dropout_12 (Dropout)            (None, 128)          0           dense_15[0][0]                   
__________________________________________________________________________________________________
batch_normalization_12 (BatchNo (None, 128)          512         dropout_12[0][0]                 
__________________________________________________________________________________________________
dense_16 (Dense)                (None, 1)            129         batch_normalization_12[0][0]     
==================================================================================================
Total params: 19,719
Trainable params: 19,423
Non-trainable params: 296
__________________________________________________________________________________________________
2020-06-24 13:33:21,187: INFO): Fold 4
2020-06-24 13:33:21,507: INFO): Model info:
__________________________________________________________________________________________________
Layer (type)                    Output Shape         Param #     Connected to                     
==================================================================================================
input_21 (InputLayer)           (None, 512)          0                                            
__________________________________________________________________________________________________
input_22 (InputLayer)           (None, 512)          0                                            
__________________________________________________________________________________________________
input_23 (InputLayer)           (None, 181)          0                                            
__________________________________________________________________________________________________
input_24 (InputLayer)           (None, 47)           0                                            
__________________________________________________________________________________________________
input_25 (InputLayer)           (None, 505)          0                                            
__________________________________________________________________________________________________
concatenate_9 (Concatenate)     (None, 1024)         0           input_21[0][0]                   
                                                                 input_22[0][0]                   
__________________________________________________________________________________________________
concatenate_10 (Concatenate)    (None, 733)          0           input_23[0][0]                   
                                                                 input_24[0][0]                   
                                                                 input_25[0][0]                   
__________________________________________________________________________________________________
dense_17 (Dense)                (None, 10)           10250       concatenate_9[0][0]              
__________________________________________________________________________________________________
dense_18 (Dense)                (None, 10)           7340        concatenate_10[0][0]             
__________________________________________________________________________________________________
dropout_13 (Dropout)            (None, 10)           0           dense_17[0][0]                   
__________________________________________________________________________________________________
dropout_14 (Dropout)            (None, 10)           0           dense_18[0][0]                   
__________________________________________________________________________________________________
batch_normalization_13 (BatchNo (None, 10)           40          dropout_13[0][0]                 
__________________________________________________________________________________________________
batch_normalization_14 (BatchNo (None, 10)           40          dropout_14[0][0]                 
__________________________________________________________________________________________________
multiply_5 (Multiply)           (None, 10)           0           batch_normalization_13[0][0]     
                                                                 batch_normalization_14[0][0]     
__________________________________________________________________________________________________
dense_19 (Dense)                (None, 128)          1408        multiply_5[0][0]                 
__________________________________________________________________________________________________
dropout_15 (Dropout)            (None, 128)          0           dense_19[0][0]                   
__________________________________________________________________________________________________
batch_normalization_15 (BatchNo (None, 128)          512         dropout_15[0][0]                 
__________________________________________________________________________________________________
dense_20 (Dense)                (None, 1)            129         batch_normalization_15[0][0]     
==================================================================================================
Total params: 19,719
Trainable params: 19,423
Non-trainable params: 296
__________________________________________________________________________________________________
2020-06-24 13:33:41,617: INFO): Transfroming mse to rmse, back transformation to Y space
…
