X [  0.   0.   0. ...   1. 145.  -6.] 0.13 6 7 6
DIM 1043
Model: "model_1"
_________________________________________________________________
Layer (type)                 Output Shape              Param #   
=================================================================
input_1 (InputLayer)         (None, 1043)              0         
_________________________________________________________________
dense_1 (Dense)              (None, 40)                41760     
_________________________________________________________________
dense_2 (Dense)              (None, 10)                410       
_________________________________________________________________
dropout_1 (Dropout)          (None, 10)                0         
_________________________________________________________________
dense_3 (Dense)              (None, 1)                 11        
=================================================================
Total params: 42,181
Trainable params: 42,181
Non-trainable params: 0
_________________________________________________________________
EPOCH 0 [-0.35541427, 0.24814714, 0.0896034, -0.37454778]||TOPN [0.006, 0.012, 0.022, 0.027, 0.028, 0.033, 0.044, 0.051, 0.06] 0.23197825436392147 ENDMAE
EPOCH 1 [0.19895169, 0.16021426, 0.037389558, 0.20739564]||TOPN [0.021, 0.024, 0.026, 0.028, 0.032, 0.041, 0.052, 0.058, 0.06] 0.20210269905856723 ENDMAE
…
