X [  0.   0.   0. ...   1. 145.  -6.] 0.13 6 7 6
DIM 1043
Model: "model_1"
_________________________________________________________________
Layer (type)                 Output Shape              Param #   
=================================================================
input_1 (InputLayer)         (None, 1043)              0         
_________________________________________________________________
dense_1 (Dense)              (None, 40)                41760     
_________________________________________________________________
dense_2 (Dense)              (None, 10)                410       
_________________________________________________________________
dropout_1 (Dropout)          (None, 10)                0         
_________________________________________________________________
dense_3 (Dense)              (None, 1)                 11        
=================================================================
Total params: 42,181
Trainable params: 42,181
Non-trainable params: 0
_________________________________________________________________
EPOCH 0 [1.0492932, 0.26734692, 0.11463103, 1.1526616]||TOPN [0.009, 0.013, 0.014, 0.025, 0.046, 0.071, 0.08, 0.089, 0.11] 0.3335814653291596 ENDMAE
EPOCH 1 [1.583141, 0.72113633, 0.5597387, 1.7297386]||TOPN [0.0, 0.0, 0.0, 0.0, 0.0, 0.0, 0.0, 0.0, 0.0] 0.6257348661892197 ENDMAE
…
