X [  0.   0.   0. ...   1. 145.  -6.] 13.0 6 7 6
DIM 1043
Model: "model_1"
_________________________________________________________________
Layer (type)                 Output Shape              Param #   
=================================================================
input_1 (InputLayer)         (None, 1043)              0         
_________________________________________________________________
dense_1 (Dense)              (None, 40)                41760     
_________________________________________________________________
dense_2 (Dense)              (None, 10)                410       
_________________________________________________________________
dropout_1 (Dropout)          (None, 10)                0         
_________________________________________________________________
dense_3 (Dense)              (None, 1)                 11        
=================================================================
Total params: 42,181
Trainable params: 42,181
Non-trainable params: 0
_________________________________________________________________
EPOCH 0 [5015.1416, 69.1708, 5164.8857, 5209.889]||TOPN [0.003, 0.007, 0.024, 0.028, 0.037, 0.047, 0.058, 0.063, 0.067] 59.691864029725814 ENDMAE
EPOCH 1 [5277.6865, 71.16913, 5476.855, 5508.146]||TOPN [0.016, 0.024, 0.029, 0.04, 0.047, 0.049, 0.051, 0.054, 0.057] 60.84751932338279 ENDMAE
…
