X [ 0.  0.  0. ...  0.  0. 80.] 0.13 6 7 6
DIM 1038
Model: "model_1"
_________________________________________________________________
Layer (type)                 Output Shape              Param #   
=================================================================
input_1 (InputLayer)         (None, 1038)              0         
_________________________________________________________________
dense_1 (Dense)              (None, 40)                41560     
_________________________________________________________________
dense_2 (Dense)              (None, 10)                410       
_________________________________________________________________
dropout_1 (Dropout)          (None, 10)                0         
_________________________________________________________________
dense_3 (Dense)              (None, 1)                 11        
=================================================================
Total params: 41,981
Trainable params: 41,981
Non-trainable params: 0
_________________________________________________________________
EPOCH 0 [0.4588239, 0.15120758, 0.039047055, 0.48306596]||TOPN [0.009, 0.015, 0.038, 0.102, 0.131, 0.146, 0.159, 0.167, 0.176] 0.20740113333530621 ENDMAE
EPOCH 1 [0.18455671, 0.1890473, 0.04987484, 0.19157407]||TOPN [0.012, 0.142, 0.165, 0.202, 0.241, 0.266, 0.29, 0.293, 0.306] 0.20174344605590727 ENDMAE
…
