X [  0.   0.   0. ...   1. 145.  -6.] 0.13 6 7 6
DIM 1043
Model: "model_1"
_________________________________________________________________
Layer (type)                 Output Shape              Param #   
=================================================================
input_1 (InputLayer)         (None, 1043)              0         
_________________________________________________________________
dense_1 (Dense)              (None, 40)                41760     
_________________________________________________________________
dense_2 (Dense)              (None, 10)                410       
_________________________________________________________________
dropout_1 (Dropout)          (None, 10)                0         
_________________________________________________________________
dense_3 (Dense)              (None, 1)                 11        
=================================================================
Total params: 42,181
Trainable params: 42,181
Non-trainable params: 0
_________________________________________________________________
EPOCH 0 [-0.35011026, 0.24784322, 0.087786175, -0.3690511]||TOPN [0.003, 0.011, 0.019, 0.023, 0.028, 0.03, 0.037, 0.051, 0.063] 0.234995392074425 ENDMAE
EPOCH 1 [0.20174612, 0.15701282, 0.037670817, 0.21032456]||TOPN [0.021, 0.023, 0.025, 0.026, 0.028, 0.034, 0.038, 0.044, 0.052] 0.20253422051058417 ENDMAE
…
