X [ 0.  0.  0. ...  0.  0. 80.] 13.0 6 7 6
DIM 1038
Model: "model_1"
_________________________________________________________________
Layer (type)                 Output Shape              Param #   
=================================================================
input_1 (InputLayer)         (None, 1038)              0         
_________________________________________________________________
dense_1 (Dense)              (None, 40)                41560     
_________________________________________________________________
dense_2 (Dense)              (None, 10)                410       
_________________________________________________________________
dropout_1 (Dropout)          (None, 10)                0         
_________________________________________________________________
dense_3 (Dense)              (None, 1)                 11        
=================================================================
Total params: 41,981
Trainable params: 41,981
Non-trainable params: 0
_________________________________________________________________
EPOCH 0 [5016.2153, 68.35045, 5165.667, 5210.667]||TOPN [0.002, 0.007, 0.013, 0.024, 0.033, 0.043, 0.055, 0.067, 0.089] 59.642734573657584 ENDMAE
EPOCH 1 [5214.7285, 70.87879, 5413.646, 5444.92]||TOPN [0.028, 0.041, 0.055, 0.067, 0.085, 0.116, 0.153, 0.171, 0.187] 60.80211268795197 ENDMAE
…
