X [  0.   0.   0. ...   1. 145.  -6.] 0.13 6 7 6
DIM 1043
Model: "model_1"
_________________________________________________________________
Layer (type)                 Output Shape              Param #   
=================================================================
input_1 (InputLayer)         (None, 1043)              0         
_________________________________________________________________
dense_1 (Dense)              (None, 40)                41760     
_________________________________________________________________
dense_2 (Dense)              (None, 10)                410       
_________________________________________________________________
dropout_1 (Dropout)          (None, 10)                0         
_________________________________________________________________
dense_3 (Dense)              (None, 1)                 11        
=================================================================
Total params: 42,181
Trainable params: 42,181
Non-trainable params: 0
_________________________________________________________________
EPOCH 0 [-1.1642189, 0.33503133, 0.1549911, -1.3142703]||TOPN [0.003, 0.006, 0.015, 0.037, 0.046, 0.083, 0.114, 0.144, 0.182] 0.35913631637545296 ENDMAE
EPOCH 1 [1.2462655, 0.71232605, 0.5419987, 1.4399987]||TOPN [0.0, 0.0, 0.0, 0.0, 0.0, 0.0, 0.0, 0.0, 0.0] 0.6257348661892197 ENDMAE
…
